…
tion/faster_rcnn_R_101_FPN_3x.yaml\")\n","cfg.MODEL.ROI_HEADS.SCORE_THRESH_TEST = 0.7\n","cfg.MODEL.DEVICE = \"cuda\"\n","model = build_model(cfg)\n","model.eval()"],"metadata":{"colab":{"base_uri":"https://localhost:8080/"},"id":"qzRyqVqzJLC0","executionInfo":{"status":"ok","timestamp":1682917991105,"user_tz":240,"elapsed":969,"user":{"displayName":"Shihong Ling","userId":"10299469978812796781"}},"outputId":"d533aba7-8709-439d-aa48-a22782d5f814"},"execution_count":31,"outputs":[{"output_type":"execute_result","data":{"text/plain":["GeneralizedRCNN(\n","  (backbone): FPN(\n","    (fpn_lateral2): Conv2d(256, 256, kernel_size=(1, 1), stride=(1, 1))\n","    (fpn_output2): Conv2d(256, 256, kernel_size=(3, 3), stride=(1, 1), padding=(1, 1))\n","    (fpn_lateral3): Conv2d(512, 256, kernel_size=(1, 1), stride=(1, 1))\n","    (fpn_output3): Conv2d(256, 256, kernel_size=(3, 3), stride=(1, 1), padding=(1, 1))\n","    (fpn_lateral4): Conv2d(1024, 256, kernel_size=(1, 1), stride=(1, 1))\n","    (fpn_output4): Conv2d(256, 256, kernel_size=(3, 3), stride=(1, 1), padding=(1, 1))\n","    (fpn_lateral5): Conv2d(2048, 256, kernel_size=(1, 1), stride=(1, 1))\n","    (fpn_output5): Conv2d(256, 256, kernel_size=(3, 3), stride=(1, 1), padding=(1, 1))\n","    (top_block): LastLevelMaxPool()\n","    (bottom_up): ResNet(\n","      (stem): BasicStem(\n","        (conv1): Conv2d(\n","          3, 64, kernel_size=(7, 7), stride=(2, 2), padding=(3, 3), bias=False\n","          (norm): FrozenBatchNorm2d(num_features=64, eps=1e-05)\n","        )\n","      )\n","      (res2): Sequential(\n","        (0): BottleneckBlock(\n","          (shortcut): Conv2d(\n","            64, 256, kernel_size=(1, 1), stride=(1, 1), bias=False\n","            (norm): FrozenBatchNorm2d(num_features=256, eps=1e-05)\n","          )\n","          (conv1): Conv2d(\n","            64, 64, kernel_size=(1, 1), stride=(1, 1), bias=False\n","            (norm): FrozenBatchNorm2d(num_features=64, eps=1e-05)\n","          )\n","          (conv2): Conv2d(\n","            64, 64, kernel_size=(3, 3), stride=(1, 1), padding=(1, 1), bias=False\n","            (norm): FrozenBatchNorm2d(num_features=64, eps=1e-05)\n","          )\n","          (conv3): Conv2d(\n","            64, 256, kernel_size=(1, 1), stride=(1, 1), bias=False\n","            (norm): FrozenBatchNorm2d(num_features=256, eps=1e-05)\n","          )\n","        )\n","        (1): BottleneckBlock(\n","          (conv1): Conv2d(\n","            256, 64, kernel_size=(1, 1), stride=(1, 1), bias=False\n","            (norm): FrozenBatchNorm2d(num_features=64, eps=1e-05)\n","          )\n","          (conv2): Conv2d(\n","            64, 64, kernel_size=(3, 3), stride=(1, 1), padding=(1, 1), bias=False\n","            (norm): FrozenBatchNorm2d(num_features=64, eps=1e-05)\n","          )\n","          (conv3): Conv2d(\n","            64, 256, kernel_size=(1, 1), stride=(1, 1), bias=False\n","            (norm): FrozenBatchNorm2d(num_features=256, eps=1e-05)\n","          )\n","        )\n","        (2): BottleneckBlock(\n","          (conv1): Conv2d(\n","            256, 64, kernel_size=(1, 1), stride=(1, 1), bias=False\n","            (norm): FrozenBatchNorm2d(num_features=64, eps=1e-05)\n","          )\n","          (conv2): Conv2d(\n","            64, 64, kernel_size=(3, 3), stride=(1, 1), padding=(1, 1), bias=False\n","            (norm): FrozenBatchNorm2d(num_features=64, eps=1e-05)\n","          )\n","          (conv3): Conv2d(\n","            64, 256, kernel_size=(1, 1), stride=(1, 1), bias=False\n","            (norm): FrozenBatchNorm2d(num_features=256, eps=1e-05)\n","          )\n","        )\n","      )\n","      (res3): Sequential(\n","        (0): BottleneckBlock(\n","          (shortcut): Conv2d(\n","            256, 512, kernel_size=(1, 1), stride=(2, 2), bias=False\n","            (norm): FrozenBatchNorm2d(num_features=512, eps=1e-05)\n","          )\n","          (conv1): Conv2d(\n","            256, 128, kernel_size=(1, 1), stride=(2, 2), bias=False\n","            (norm): FrozenBatchNorm2d(num_features=128, eps=1e-05)\n","          )\n","          (conv2): Conv2d(\n","            128, 128, kernel_size=(3, 3), stride=(1, 1), padding=(1, 1), bias=False\n","            (norm): FrozenBatchNorm2d(num_features=128, eps=1e-05)\n","          )\n","          (conv3): Conv2d(\n","            128, 512, kernel_size=(1, 1), stride=(1, 1), bias=False\n","            (norm): FrozenBatchNorm2d(num_features=512, eps=1e-05)\n","          )\n","        )\n","        (1): BottleneckBlock(\n","          (conv1): Conv2d(\n","            512, 128, kernel_size=(1, 1), stride=(1, 1), bias=False\n","            (norm): FrozenBatchNorm2d(num_features=128, eps=1e-05)\n","          )\n","          (conv2): Conv2d(\n","            128, 128, kernel_size=(3, 3), stride=(1, 1), padding=(1, 1), bias=False\n","            (norm): FrozenBatchNorm2d(num_features=128, eps=1e-05)\n","          )\n","          (conv3): Conv2d(\n","            128, 512, kernel_size=(1, 1), stride=(1, 1), bias=False\n","            (norm): FrozenBatchNorm2d(num_features=512, eps=1e-05)\n","          )\n","        )\n","        (2): BottleneckBlock(\n","          (conv1): Conv2d(\n","            512, 128, kernel_size=(1, 1), stride=(1, 1), bias=False\n","            (norm): FrozenBatchNorm2d(num_features=128, eps=1e-05)\n","          )\n","          (conv2): Conv2d(\n","            128, 128, kernel_size=(3, 3), stride=(1, 1), padding=(1, 1), bias=False\n","            (norm): FrozenBatchNorm2d(num_features=128, eps=1e-05)\n","          )\n","          (conv3): Conv2d(\n","            128, 512, kernel_size=(1, 1), stride=(1, 1), bias=False\n","            (norm): FrozenBatchNorm2d(num_features=512, eps=1e-05)\n","          )\n","        )\n","        (3): BottleneckBlock(\n","          (conv1): Conv2d(\n","            512, 128, kernel_size=(1, 1), stride=(1, 1), bias=False\n","            (norm): FrozenBatchNorm2d(num_features=128, eps=1e-05)\n","          )\n","          (conv2): Conv2d(\n","            128, 128, kernel_size=(3, 3), stride=(1, 1), padding=(1, 1), bias=False\n","            (norm): FrozenBatchNorm2d(num_features=128, eps=1e-05)\n","          )\n","          (conv3): Conv2d(\n","            128, 512, kernel_size=(1, 1), stride=(1, 1), bias=False\n","            (norm): FrozenBatchNorm2d(num_features=512, eps=1e-05)\n","          )\n","        )\n","      )\n","      (res4): Sequential(\n","        (0): BottleneckBlock(\n","          (shortcut): Conv2d(\n","            512, 1024, kernel_size=(1, 1), stride=(2, 2), bias=False\n","            (norm): FrozenBatchNorm2d(num_features=1024, eps=1e-05)\n","          )\n","          (conv1): Conv2d(\n","            512, 256, kernel_size=(1, 1), stride=(2, 2), bias=False\n","            (norm): FrozenBatchNorm2d(num_features=256, eps=1e-05)\n","          )\n","          (conv2): Conv2d(\n","            256, 256, kernel_size=(3, 3), stride=(1, 1), padding=(1, 1), bias=False\n","            (norm): FrozenBatchNorm2d(num_features=256, eps=1e-05)\n","          )\n","          (conv3): Conv2d(\n","            256, 1024, kernel_size=(1, 1), stride=(1, 1), bias=False\n","            (norm): FrozenBatchNorm2d(num_features=1024, eps=1e-05)\n","          )\n","        )\n","        (1): BottleneckBlock(\n","          (conv1): Conv2d(\n","            1024, 256, kernel_size=(1, 1), stride=(1, 1), bias=False\n","            (norm): FrozenBatchNorm2d(num_features=256, eps=1e-05)\n","          )\n","          (conv2): Conv2d(\n","            256, 256, kernel_size=(3, 3), stride=(1, 1), padding=(1, 1), bias=False\n","            (norm): FrozenBatchNorm2d(num_features=256, eps=1e-05)\n","          )\n","          (conv3): Conv2d(\n","            256, 1024, kernel_size=(1, 1), stride=(1, 1), bias=False\n","            (norm): FrozenBatchNorm2d(num_features=1024, eps=1e-05)\n","          )\n","        )\n","        (2): BottleneckBlock(\n","          (conv1): Conv2d(\n","            1024, 256, kernel_size=(1, 1), stride=(1, 1), bias=False\n","            (norm): FrozenBatchNorm2d(num_features=256, eps=1e-05)\n","          )\n","          (conv2): Conv2d(\n","            256, 256, kernel_size=(3, 3), stride=(1, 1), padding=(1, 1), bias=False\n","            (norm): FrozenBatchNorm2d(num_features=256, eps=1e-05)\n","          )\n","          (conv3): Conv2d(\n","            256, 1024, kernel_size=(1, 1), stride=(1, 1), bias=False\n","            (norm): FrozenBatchNorm2d(num_features=1024, eps=1e-05)\n","          )\n","        )\n","        (3): BottleneckBlock(\n","          (conv1): Conv2d(\n","            1024, 256, kernel_size=(1, 1), stride=(1, 1), bias=False\n","            (norm): FrozenBatchNorm2d(num_features=256, eps=1e-05)\n","          )\n","          (conv2): Conv2d(\n","            256, 256, kernel_size=(3, 3), stride=(1, 1), padding=(1, 1), bias=False\n","            (norm): FrozenBatchNorm2d(num_features=256, eps=1e-05)\n","          )\n","          (conv3): Conv2d(\n","            256, 1024, kernel_size=(1, 1), stride=(1, 1), bias=False\n","            (norm): FrozenBatchNorm2d(num_features=1024, eps=1e-05)\n","          )\n","        )\n","        (4): BottleneckBlock(\n","          (conv1): Conv2d(\n","            1024, 256, kernel_size=(1, 1), stride=(1, 1), bias=False\n","            (norm): FrozenBatchNorm2d(num_features=256, eps=1e-05)\n","          )\n","          (conv2): Conv2d(\n","            256, 256, kernel_size=(3, 3), stride=(1, 1), padding=(1, 1), bias=False\n","            (norm): FrozenBatchNorm2d(num_features=256, eps=1e-05)\n","          )\n","          (conv3): Conv2d(\n","            256, 1024, kernel_size=(1, 1), stride=(1, 1), bias=False\n","            (norm): FrozenBatchNorm2d(num_features=1024, eps=1e-05)\n","          )\n","        )\n","        (5): BottleneckBlock(\n","          (conv1): Conv2d(\n","            1024, 256, kernel_size=(1, 1), stride=(1, 1), bias=False\n","            (norm): FrozenBatchNorm2d(num_features=256, eps=1e-05)\n","          )\n","          (conv2): Conv2d(\n","            256, 256, kernel_size=(3, 3), stride=(1, 1), padding=(1, 1), bias=False\n","            (norm): FrozenBatchNorm2d(num_features=256, eps=1e-05)\n","          )\n","          (conv3): Conv2d(\n","            256, 1024, kernel_size=(1, 1), stride=(1, 1), bias=False\n","            (norm): FrozenBatchNorm2d(num_features=1024, eps=1e-05)\n","          )\n","        )\n","        (6): BottleneckBlock(\n","          (conv1): Conv2d(\n","            1024, 256, kernel_size=(1, 1), stride=(1, 1), bias=False\n","            (norm): FrozenBatchNorm2d(num_features=256, eps=1e-05)\n","          )\n","          (conv2): Conv2d(\n","            256, 256, kernel_size=(3, 3), stride=(1, 1), padding=(1, 1), bias=False\n","            (norm): FrozenBatchNorm2d(num_features=256, eps=1e-05)\n","          )\n","          (conv3): Conv2d(\n","            256, 1024, kernel_size=(1, 1), stride=(1, 1), bias=False\n","            (norm): FrozenBatchNorm2d(num_features=1024, eps=1e-05)\n","          )\n","        )\n","        (7): BottleneckBlock(\n","          (conv1): Conv2d(\n","            1024, 256, kernel_size=(1, 1), stride=(1, 1), bias=False\n","            (norm): FrozenBatchNorm2d(num_features=256, eps=1e-05)\n","          )\n","          (conv2): Conv2d(\n","            256, 256, kernel_size=(3, 3), stride=(1, 1), padding=(1, 1), bias=False\n","            (norm): FrozenBatchNorm2d(num_features=256, eps=1e-05)\n","          )\n","          (conv3): Conv2d(\n","            256, 1024, kernel_size=(1, 1), stride=(1, 1), bias=False\n","            (norm): FrozenBatchNorm2d(num_features=1024, eps=1e-05)\n","          )\n","        )\n","        (8): BottleneckBlock(\n","          (conv1): Conv2d(\n","            1024, 256, kernel_size=(1, 1), stride=(1, 1), bias=False\n","            (norm): FrozenBatchNorm2d(num_features=256, eps=1e-05)\n","          )\n","          (conv2): Conv2d(\n","            256, 256, kernel_size=(3, 3), stride=(1, 1), padding=(1, 1), bias=False\n","            (norm): FrozenBatchNorm2d(num_features=256, eps=1e-05)\n","          )\n","          (conv3): Conv2d(\n","            256, 1024, kernel_size=(1, 1), stride=(1, 1), bias=False\n","            (norm): FrozenBatchNorm2d(num_features=1024, eps=1e-05)\n","          )\n","        )\n","        (9): BottleneckBlock(\n","          (conv1): Conv2d(\n","            1024, 256, kernel_size=(1, 1), stride=(1, 1), bias=False\n","            (norm): FrozenBatchNorm2d(num_features=256, eps=1e-05)\n","          )\n","          (conv2): Conv2d(\n","            256, 256, kernel_size=(3, 3), stride=(1, 1), padding=(1, 1), bias=False\n","            (norm): FrozenBatchNorm2d(num_features=256, eps=1e-05)\n","          )\n","          (conv3): Conv2d(\n","            256, 1024, kernel_size=(1, 1), stride=(1, 1), bias=False\n","            (norm): FrozenBatchNorm2d(num_features=1024, eps=1e-05)\n","          )\n","        )\n","        (10): BottleneckBlock(\n","          (conv1): Conv2d(\n","            1024, 256, kernel_size=(1, 1), stride=(1, 1), bias=False\n","            (norm): FrozenBatchNorm2d(num_features=256, eps=1e-05)\n","          )\n","          (conv2): Conv2d(\n","            256, 256, kernel_size=(3, 3), stride=(1, 1), padding=(1, 1), bias=False\n","            (norm): FrozenBatchNorm2d(num_features=256, eps=1e-05)\n","          )\n","          (conv3): Conv2d(\n","            256, 1024, kernel_size=(1, 1), stride=(1, 1), bias=False\n","            (norm): FrozenBatchNorm2d(num_features=1024, eps=1e-05)\n","          )\n","        )\n","        (11): BottleneckBlock(\n","          (conv1): Conv2d(\n","            1024, 256, kernel_size=(1, 1), stride=(1, 1), bias=False\n","            (norm): FrozenBatchNorm2d(num_features=256, eps=1e-05)\n","          )\n","          (conv2): Conv2d(\n","            256, 256, kernel_size=(3, 3), stride=(1, 1), padding=(1, 1), bias=False\n","            (norm): FrozenBatchNorm2d(num_features=256, eps=1e-05)\n","          )\n","          (conv3): Conv2d(\n","            256, 1024, kernel_size=(1, 1), stride=(1, 1), bias=False\n","            (norm): FrozenBatchNorm2d(num_features=1024, eps=1e-05)\n","          )\n","        )\n","        (12): BottleneckBlock(\n","          (conv1): Conv2d(\n","            1024, 256, kernel_size=(1, 1), stride=(1, 1), bias=False\n","            (norm): FrozenBatchNorm2d(num_features=256, eps=1e-05)\n","          )\n","          (conv2): Conv2d(\n","            256, 256, kernel_size=(3, 3), stride=(1, 1), padding=(1, 1), bias=False\n","            (norm): FrozenBatchNorm2d(num_features=256, eps=1e-05)\n","          )\n","          (conv3): Conv2d(\n","            256, 1024, kernel_size=(1, 1), stride=(1, 1), bias=False\n","            (norm): FrozenBatchNorm2d(num_features=1024, eps=1e-05)\n","          )\n","        )\n","        (13): BottleneckBlock(\n","          (conv1): Conv2d(\n","            1024, 256, kernel_size=(1, 1), stride=(1, 1), bias=False\n","            (norm): FrozenBatchNorm2d(num_features=256, eps=1e-05)\n","          )\n","          (conv2): Conv2d(\n","            256, 256, kernel_size=(3, 3), stride=(1, 1), padding=(1, 1), bias=False\n","            (norm): FrozenBatchNorm2d(num_features=256, eps=1e-05)\n","          )\n","          (conv3): Conv2d(\n","            256, 1024, kernel_size=(1, 1), stride=(1, 1), bias=False\n","            (norm): FrozenBatchNorm2d(num_features=1024, eps=1e-05)\n","          )\n","        )\n","        (14): BottleneckBlock(\n","          (conv1): Conv2d(\n","            1024, 256, kernel_size=(1, 1), stride=(1, 1), bias=False\n","            (norm): FrozenBatchNorm2d(num_features=256, eps=1e-05)\n","          )\n","          (conv2): Conv2d(\n","            256, 256, kernel_size=(3, 3), stride=(1, 1), padding=(1, 1), bias=False\n","            (norm): FrozenBatchNorm2d(num_features=256, eps=1e-05)\n","          )\n","          (conv3): Conv2d(\n","            256, 1024, kernel_size=(1, 1), stride=(1, 1), bias=False\n","            (norm): FrozenBatchNorm2d(num_features=1024, eps=1e-05)\n","          )\n","        )\n","        (15): BottleneckBlock(\n","          (conv1): Conv2d(\n","            1024, 256, kernel_size=(1, 1), stride=(1, 1), bias=False\n","            (norm): FrozenBatchNorm2d(num_features=256, eps=1e-05)\n","          )\n","          (conv2): Conv2d(\n","            256, 256, kernel_size=(3, 3), stride=(1, 1), padding=(1, 1), bias=False\n","            (norm): FrozenBatchNorm2d(num_features=256, eps=1e-05)\n","          )\n","          (conv3): Conv2d(\n","            256, 1024, kernel_size=(1, 1), stride=(1, 1), bias=False\n","            (norm): FrozenBatchNorm2d(num_features=1024, eps=1e-05)\n","          )\n","        )\n","        (16): BottleneckBlock(\n","          (conv1): Conv2d(\n","            1024, 256, kernel_size=(1, 1), stride=(1, 1), bias=False\n","            (norm): FrozenBatchNorm2d(num_features=256, eps=1e-05)\n","          )\n","          (conv2): Conv2d(\n","            256, 256, kernel_size=(3, 3), stride=(1, 1), padding=(1, 1), bias=False\n","            (norm): FrozenBatchNorm2d(num_features=256, eps=1e-05)\n","          )\n","          (conv3): Conv2d(\n","            256, 1024, kernel_size=(1, 1), stride=(1, 1), bias=False\n","            (norm): FrozenBatchNorm2d(num_features=1024, eps=1e-05)\n","          )\n","        )\n","        (17): BottleneckBlock(\n","          (conv1): Conv2d(\n","            1024, 256, kernel_size=(1, 1), stride=(1, 1), bias=False\n","            (norm): FrozenBatchNorm2d(num_features=256, eps=1e-05)\n","          )\n","          (conv2): Conv2d(\n","            256, 256, kernel_size=(3, 3), stride=(1, 1), padding=(1, 1), bias=False\n","            (norm): FrozenBatchNorm2d(num_features=256, eps=1e-05)\n","          )\n","          (conv3): Conv2d(\n","            256, 1024, kernel_size=(1, 1), stride=(1, 1), bias=False\n","            (norm): FrozenBatchNorm2d(num_features=1024, eps=1e-05)\n","          )\n","        )\n","        (18): BottleneckBlock(\n","          (conv1): Conv2d(\n","            1024, 256, kernel_size=(1, 1), stride=(1, 1), bias=False\n","            (norm): FrozenBatchNorm2d(num_features=256, eps=1e-05)\n","          )\n","          (conv2): Conv2d(\n","            256, 256, kernel_size=(3, 3), stride=(1, 1), padding=(1, 1), bias=False\n","            (norm): FrozenBatchNorm2d(num_features=256, eps=1e-05)\n","          )\n","          (conv3): Conv2d(\n","            256, 1024, kernel_size=(1, 1), stride=(1, 1), bias=False\n","            (norm): FrozenBatchNorm2d(num_features=1024, eps=1e-05)\n","          )\n","        )\n","        (19): BottleneckBlock(\n","          (conv1): Conv2d(\n","            1024, 256, kernel_size=(1, 1), stride=(1, 1), bias=False\n","            (norm): FrozenBatchNorm2d(num_features=256, eps=1e-05)\n","          )\n","          (conv2): Conv2d(\n","            256, 256, kernel_size=(3, 3), stride=(1, 1), padding=(1, 1), bias=False\n","            (norm): FrozenBatchNorm2d(num_features=256, eps=1e-05)\n","          )\n","          (conv3): Conv2d(\n","            256, 1024, kernel_size=(1, 1), stride=(1, 1), bias=False\n","            (norm): FrozenBatchNorm2d(num_features=1024, eps=1e-05)\n","          )\n","        )\n","        (20): BottleneckBlock(\n","          (conv1): Conv2d(\n","            1024, 256, kernel_size=(1, 1), stride=(1, 1), bias=False\n","            (norm): FrozenBatchNorm2d(num_features=256, eps=1e-05)\n","          )\n","          (conv2): Conv2d(\n","            256, 256, kernel_size=(3, 3), stride=(1, 1), padding=(1, 1), bias=False\n","            (norm): FrozenBatchNorm2d(num_features=256, eps=1e-05)\n","          )\n","          (conv3): Conv2d(\n","            256, 1024, kernel_size=(1, 1), stride=(1, 1), bias=False\n","            (norm): FrozenBatchNorm2d(num_features=1024, eps=1e-05)\n","          )\n","        )\n","        (21): BottleneckBlock(\n","          (conv1): Conv2d(\n","            1024, 256, kernel_size=(1, 1), stride=(1, 1), bias=False\n","            (norm): FrozenBatchNorm2d(num_features=256, eps=1e-05)\n","          )\n","          (conv2): Conv2d(\n","            256, 256, kernel_size=(3, 3), stride=(1, 1), padding=(1, 1), bias=False\n","            (norm): FrozenBatchNorm2d(num_features=256, eps=1e-05)\n","          )\n","          (conv3): Conv2d(\n","            256, 1024, kernel_size=(1, 1), stride=(1, 1), bias=False\n","            (norm): FrozenBatchNorm2d(num_features=1024, eps=1e-05)\n","          )\n","        )\n","        (22): BottleneckBlock(\n","          (conv1): Conv2d(\n","            1024, 256, kernel_size=(1, 1), stride=(1, 1), bias=False\n","            (norm): FrozenBatchNorm2d(num_features=256, eps=1e-05)\n","          )\n","          (conv2): Conv2d(\n","            256, 256, kernel_size=(3, 3), stride=(1, 1), padding=(1, 1), bias=False\n","            (norm): FrozenBatchNorm2d(num_features=256, eps=1e-05)\n","          )\n","          (conv3): Conv2d(\n","            256, 1024, kernel_size=(1, 1), stride=(1, 1), bias=False\n","            (norm): FrozenBatchNorm2d(num_features=1024, eps=1e-05)\n","          )\n","        )\n","      )\n","      (res5): Sequential(\n","        (0): BottleneckBlock(\n","          (shortcut): Conv2d(\n","            1024, 2048, kernel_size=(1, 1), stride=(2, 2), bias=False\n","            (norm): FrozenBatchNorm2d(num_features=2048, eps=1e-05)\n","          )\n","          (conv1): Conv2d(\n","            1024, 512, kernel_size=(1, 1), stride=(2, 2), bias=False\n","            (norm): FrozenBatchNorm2d(num_features=512, eps=1e-05)\n","          )\n","          (conv2): Conv2d(\n","            512, 512, kernel_size=(3, 3), stride=(1, 1), padding=(1, 1), bias=False\n","            (norm): FrozenBatchNorm2d(num_features=512, eps=1e-05)\n","          )\n","          (conv3): Conv2d(\n","            512, 2048, kernel_size=(1, 1), stride=(1, 1), bias=False\n","            (norm): FrozenBatchNorm2d(num_features=2048, eps=1e-05)\n","          )\n","        )\n","        (1): BottleneckBlock(\n","          (conv1): Conv2d(\n","            2048, 512, kernel_size=(1, 1), stride=(1, 1), bias=False\n","            (norm): FrozenBatchNorm2d(num_features=512, eps=1e-05)\n","          )\n","          (conv2): Conv2d(\n","            512, 512, kernel_size=(3, 3), stride=(1, 1), padding=(1, 1), bias=False\n","            (norm): FrozenBatchNorm2d(num_features=512, eps=1e-05)\n","          )\n","          (conv3): Conv2d(\n","            512, 2048, kernel_size=(1, 1), stride=(1, 1), bias=False\n","            (norm): FrozenBatchNorm2d(num_features=2048, eps=1e-05)\n","          )\n","        )\n","        (2): BottleneckBlock(\n","          (conv1): Conv2d(\n","            2048, 512, kernel_size=(1, 1), stride=(1, 1), bias=False\n","            (norm): FrozenBatchNorm2d(num_features=512, eps=1e-05)\n","          )\n","          (conv2): Conv2d(\n","            512, 512, kernel_size=(3, 3), stride=(1, 1), padding=(1, 1), bias=False\n","            (norm): FrozenBatchNorm2d(num_features=512, eps=1e-05)\n","          )\n","          (conv3): Conv2d(\n","            512, 2048, kernel_size=(1, 1), stride=(1, 1), bias=False\n","            (norm): FrozenBatchNorm2d(num_features=2048, eps=1e-05)\n","          )\n","        )\n","      )\n","    )\n","  )\n","  (proposal_generator): RPN(\n","    (rpn_head): StandardRPNHead(\n","      (conv): Conv2d(\n","        256, 256, kernel_size=(3, 3), stride=(1, 1), padding=(1, 1)\n","        (activation): ReLU()\n","      )\n","      (objectness_logits): Conv2d(256, 3, kernel_size=(1, 1), stride=(1, 1))\n","      (anchor_deltas): Conv2d(256, 12, kernel_size=(1, 1), stride=(1, 1))\n","    )\n","    (anchor_generator): DefaultAnchorGenerator(\n","      (cell_anchors): BufferList()\n","    )\n","  )\n","  (roi_heads): StandardROIHeads(\n","    (box_pooler): ROIPooler(\n","      (level_poolers): ModuleList(\n","        (0): ROIAlign(output_size=(7, 7), spatial_scale=0.25, sampling_ratio=0, aligned=True)\n","        (1): ROIAlign(output_size=(7, 7), spatial_scale=0.125, sampling_ratio=0, aligned=True)\n","        (2): ROIAlign(output_size=(7, 7), spatial_scale=0.0625, sampling_ratio=0, aligned=True)\n","        (3): ROIAlign(output_size=(7, 7), spatial_scale=0.03125, sampling_ratio=0, aligned=True)\n","      )\n","    )\n","    (box_head): FastRCNNConvFCHead(\n","      (flatten): Flatten(start_dim=1, end_dim=-1)\n","      (fc1): Linear(in_features=12544, out_features=1024, bias=True)\n","      (fc_relu1): ReLU()\n","      (fc2): Linear(in_features=1024, out_features=1024, bias=True)\n","      (fc_relu2): ReLU()\n","    )\n","    (box_predictor): FastRCNNOutputLayers(\n","      (cls_score): Linear(in_features=1024, out_features=81, bias=True)\n","      (bbox_pred): Linear(in_features=1024, out_features=320, bias=True)\n","    )\n","  )\n",")"]},"metadata":{},"execution_count":31}]},{"cell_type":"code","source":["from detectron2.data.transforms import ResizeShortestEdge\n","from torchvision.transforms import ToTensor\n","from detectron2.structures import ImageList\n","cfg = get_cfg()\n","cfg.merge_from_file(model_zoo.get_config_file(\"COCO-Detection/faster_rcnn_R_10
…
